Project 3/data.pt (torch, 92026 bytes, 68 tensors)

expected_output f4 [2, 10]
0.04884401 -0.17041983 -0.1149656 -0.24804656 0.008989185 -0.0696135 -0.1347131 0.22073188
0.090305686 -0.25271422 0.2263116 0.27905282 -0.16169229 0.25032344 -0.07073206 0.27949265
0.24325046 0.13789785 0.26811108 0.17336139
00000000: a810 483d 8982 2ebe 1673 ebbd ebff 7dbe
00000010: 6047 133c 8691 8ebd 3bf2 09be 8a07 623e
00000020: 30f2 b83d c263 81be 3abe 673e 03e0 8e3e
00000030: aa92 25be 652a 803e f8db 90bd a919 8f3e
00000040: a616 793e 1835 0d3e db45 893e a685 313e

expected_output f4 [5, 2]
0.0 0.0 0.0 0.0 0.0 0.0 0.0 0.0
0.0 0.0
00000000: 0000 0000 0000 0000 0000 0000 0000 0000
00000010: 0000 0000 0000 0000 0000 0000 0000 0000
00000020: 0000 0000 0000 0000

expected_output f4 [2, 10]
-0.049580336 0.20466146 -0.29800573 -0.2286576 0.30632874 -0.088392034 -0.17207013 -0.2187186
-0.028214961 0.22678211 0.19466737 0.13293561 0.25765017 0.28515694 -0.2564108 -0.15991585
0.30874208 0.094812006 0.30924854 -0.0075674355
00000000: c014 4bbd c692 513e 3594 98be 3825 6abe
00000010: 1fd7 9c3e e206 b5bd 2733 30be c5f7 5fbe
00000020: 1023 e7bc 9239 683e e256 473e 4620 083e
00000030: b9ea 833e 1700 923e 4748 83be fbc0 23be
00000040: 7113 9e3e cc2c c23d d355 9e3e 40f8 f7bb

expected_output f4 [5, 2]
0.0 0.0 0.0 0.0 0.0 0.0 0.0 0.0
0.0 0.0
00000000: 0000 0000 0000 0000 0000 0000 0000 0000
00000010: 0000 0000 0000 0000 0000 0000 0000 0000
00000020: 0000 0000 0000 0000

expected_output f4 [4, 10]
-0.2920148 -0.15224226 -0.05521238 0.19134119 -0.14435501 -0.26556185 0.013929337 0.20888177
0.2352331 0.25081274 -0.02441594 -0.12305759 0.25230792 0.07043758 0.2986051 0.031282008
-0.07406747 -0.26294735 0.16477638 0.17499095 0.082728475 -0.03428486 -0.19037646 0.28754988
0.13699782 -0.056910843 -0.08449063 0.18138045 -0.25129324 0.3006622 -0.24293995 -0.033556253
-0.06062308 -0.17742379 -0.09129834 -0.25036016 -0.28812295 -0.27839074 0.03738734 -0.12329964
00000000: f782 95be 65e5 1bbe 6026 62bd f2ee 433e
00000010: cdd1 13be b9f7 87be e037 643c 1ae5 553e
00000020: f2e0 703e 876a 803e f003 c8bc 9e05 fcbd
00000030: 812e 813e 9441 903d c5e2 983e 9021 003d
00000040: b0b0 97bd 09a1 86be 24bb 283e d430 333e
00000050: 8c6d a93d 486e 0cbd 0cf2 42be bd39 933e
00000060: 2849 0c3e 581b 69bd 6c09 adbd ccbb 393e
00000070: 82a9 80be 65f0 993e 40c5 78be 4872 09bd
00000080: e84f 78bd 95ae 35be a0fa babd 352f 80be
00000090: da84 93be 3b89 8ebe 7823 193d 8684 fcbd

expected_output f4 [5, 4]
0.0 0.0 0.0 0.0 0.0 0.0 0.0 0.0
0.0 0.0 0.0 0.0 0.0 0.0 0.0 0.0
0.0 0.0 0.0 0.0
00000000: 0000 0000 0000 0000 0000 0000 0000 0000
00000010: 0000 0000 0000 0000 0000 0000 0000 0000
00000020: 0000 0000 0000 0000 0000 0000 0000 0000
00000030: 0000 0000 0000 0000 0000 0000 0000 0000
00000040: 0000 0000 0000 0000 0000 0000 0000 0000

expected_output f4 [5, 100]
0.0023752674 -0.08117966 -0.0808395 0.07642736 0.08742864 0.08313378 0.029266395 -0.082734786
0.08412378 0.05804109 -0.032208085 -0.09199961 0.0746635 -0.07208538 0.012024246 -0.084761105
-0.05023725 -0.031618215 0.08514691 0.061645694 -0.038592782 0.0030541196 -0.08707189 -0.05925752
0.04761941 0.022154711 0.077302344 0.015083514 0.00080055 0.031231873 0.07145154 0.042824395
0.039885916 -0.021629557 -0.09318242 -0.07290701 -0.046435785 0.04593716 0.072533794 -0.08581002
0.021725975 0.059907205 -0.048751403 -0.015415989 -0.02153264 0.038375594 0.073228724 0.02892945
0.06261825 -0.064133495 -0.08183465 0.0034248456 0.09041428 -0.026123606 0.054483496 0.05742105
-0.008259848 0.05155138 -0.079655886 0.014717117 -0.043664884 -0.039884664 -0.08047277 -0.04580902
0.006663993 0.03991782 -0.0891915 -0.05189463 0.08198614 0.0030397996 0.0067390427 -0.06029805
0.09653775 -0.0073664337 0.035807274 -0.020181313 0.081003346 0.023100331 -0.010759369 0.07480308
-0.077380106 -0.07662606 0.08699549 -0.04489113 -0.097047485 0.052310534 -0.0574481 -0.04417187
-0.091282606 0.069898136 -0.081061736 0.07838739 0.08732397 0.044160552 0.017565772 -0.08522435
-0.044392 -0.054090288 -0.06596241 0.09072179 0.03634169 -0.07242054 0.0020804852 0.09017242
-0.08287803 -0.047379803 0.064038865 -0.024571002 0.06467267 0.0075653195 0.08364857 -0.028816305
0.00055743754 0.04086811 -0.016404256 -0.08078805 0.061014168 0.04139609 -0.044092845 0.0549201
0.049660824 0.05964727 -0.03149189 -0.02724123 -0.032332525 -0.09110298 -0.03896096 0.012549564
-0.08615048 -0.08398338 0.032799087 -0.009652689 -0.09357287 -0.017632566 0.015255846 -0.061985243
0.09580339 0.07033708 -0.025090933 -0.030615069 -0.055284023 -0.072314516 0.073623516 0.079499565
0.0016552433 0.07280675 0.0726048 0.098252036 0.028149806 0.055507265 0.05416795 0.027544536
-0.04439217 0.016030267 0.07325403 0.07468983 0.0374315 0.08535179 -0.060162853 0.06730323
0.006970823 -0.06784552 0.012704313 0.0871019 -0.0887053 -0.087858856 -0.029931389 0.012224317
-0.006995 0.0778508 -0.06496666 0.02808734 -0.05324445 -0.06018696 -0.028763331 0.03422331
0.082375385 -6.772578e-05 0.09086508 -0.0681341 0.087421305 -0.025342546 -0.093536735 -0.064456925
0.06608444 -0.004374221 0.08691075 0.039207347 0.062352218 0.03661432 -0.0007433146 -0.0076095015
-0.0077828616 0.07883669 0.02088388 -0.0966869 0.06376084 -0.065471455 0.01456441 0.011520624
0.05526892 0.05999034 -0.020163238 -0.021587178 -0.04233252 0.09158958 0.045682482 -0.07384058
0.033101894 -0.033666395 -0.033629797 0.01725179 0.05532954 0.035443492 0.03603158 -0.043866348
0.08434779 0.006414175 0.09767114 0.049252994 -0.034640886 0.028557725 0.055854626 0.05046975
-0.092821084 0.04612521 -0.09531503 0.0917955 -0.02440025 0.092298545 -0.031212136 -0.03667523
0.04675757 0.076776214 0.022239015 0.05966773 0.052777834 -0.06645733 0.013150856 0.006775096
0.026677258 -0.0227767 0.014587797 -0.03922832 0.07744197 -0.044465054 0.053185172 0.08353945
0.06178894 0.0042699724 0.015179396 -0.060742866 -0.069872364 -0.017677642 -0.06484194 -0.024570227
00000000: 60aa 1b3b 8641 a6bd 2e8f a5bd f385 9c3d
00000010: c90d b33d 0b42 aa3d 14c0 ef3c db70 a9bd
00000020: 1749 ac3d 7ebc 6d3d a0ec 03bd 4b6a bcbd
00000030: 2de9 983d 80a1 93bd 5801 453c 3b97 adbd
00000040: 93c5 4dbd 1a82 01bd 8161 ae3d 3280 7c3d
00000050: 7713 1ebd a027 483b bf52 b2bd 03b8 72bd
00000060: 920c 433d cc7d b53c b150 9e3d d820 773c
00000070: 00dc 513a fcd9 ff3c 2f55 923d a268 2f3d
00000080: 6a5f 233d 7830 b1bc 6dd6 bebd 4550 95bd
00000090: 7333 3ebd 9a28 3c3d 998c 943d 2abd afbd
000000a0: acfa b13c 4261 753d 8daf 47bd 5893 7cbc
000000b0: 3865 b0bc ba2f 1d3d f1f8 953d 74fd ec3c
000000c0: ff3d 803d 6c58 83bd ed98 a7bd 6073 603b
000000d0: 1f2b b93d 2c01 d6bc 162a 5f3d 5632 6b3d
000000e0: 5054 07bc 8a27 533d a022 a3bd 1020 713c
000000f0: f3d9 32bd 1a5e 23bd e8ce a4bd 3da2 3bbd
00000100: a05d da3b de80 233d 08aa b6bd 778f 54bd
00000110: 59e8 a73d 6037 473b 30d3 dc3b 17fb 76bd
00000120: 95b5 c53d 2062 f1bb a6aa 123d 4853 a5bc
00000130: 15e5 a53d e83c bd3c 1048 30bc 5b32 993d
00000140: 7679 9ebd 20ee 9cbd b12a b23d c3df 37bd
00000150: d5c0 c6bd 9243 563d b34e 6bbd 90ed 34bd
00000160: 60f2 babd c126 8f3d b203 a6bd 9189 a03d
00000170: e9d6 b23d b2e1 343d 18e6 8f3c 1b8a aebd
00000180: 63d4 35bd c78d 5dbd 4d17 87bd 59cc b93d
00000190: 06db 143d 3851 94bd c058 083b 51ac b83d
000001a0: f5bb a9bd 5311 42bd cf26 833d 2049 c9bc
000001b0: 1b73 843d 80e6 f73b f14f ab3d 2c10 ecbc
000001c0: 0021 123a 5265 273d 3862 86bc 3574 a5bd
000001d0: fee9 793d f28e 293d b39a 34bd e6f3 603d
000001e0: 2669 4b3d b250 743d a4fd 00bd 0029 dfbc
000001f0: 1c6f 04bd 3394 babd 8795 1fbd b09c 4d3c
00000200: aa6f b0bd 7aff abbd 5658 063d 5026 1ebc
00000210: 22a3 bfbd 2c72 90bc a8f3 793c 3de4 7dbd
00000220: 9134 c43d e30c 903d 808b cdbc 74cc fabc
00000230: 8071 62bd a219 94bd edc7 963d abd0 a23d
00000240: c0f4 d83a b51b 953d d3b1 943d 5d38 c93d
00000250: 6c9a e63c 965b 633d 36df 5d3d 14a5 e13c
00000260: 90d4 35bd e851 833c 3506 963d fbf6 983d
00000270: c651 193d ebcc ae3d 536d 76bd 47d6 893d
00000280: 806b e43b 98f2 8abd c025 503c 7b62 b23d
00000290: 20ab b5bd 58ef b3bd ac32 f5bc 8048 483c
000002a0: 5036 e5bb 3d70 9f3d 3e0d 85bd 6c17 e63c
000002b0: da16 5abd 9a86 76bd 14a1 ebbc be2d 0c3d
000002c0: 6db4 a83d 0008 8eb8 7917 ba3d e489 8bbd
000002d0: f109 b33d 2c9b cfbc 3090 bfbd fe01 84bd
000002e0: 4757 873d a055 8fbb 43fe b13d e297 203d
000002f0: 0a65 7f3d e6f8 153d 00db 42ba 2059 f9bb
00000300: 6007 ffbb 2175 a13d ac14 ab3c c803 c6bd
00000310: 0b95 823d e615 86bd 909f 6e3c 00c1 3c3c
00000320: aa61 623d 6eb8 753d 602d a5bc 98d7 b0bc
00000330: dd64 2dbd 5193 bb3d 8e1d 3b3d bb39 97bd
00000340: da95 073d c6e5 09bd 66bf 09bd a053 8d3c
00000350: 3aa1 623d 322d 113d da95 133d 33ad 33bd
00000360: 89be ac3d 002e d23b cf07 c83d 82bd 493d
00000370: 9ae3 0dbd e4f1 e93c d2c7 643d 5eb9 4e3d
00000380: fb18 bebd caed 3c3d 8734 c3bd 47ff bb3d
00000390: 08e3 c7bc 0507 bd3d 98b0 ffbc c438 16bd
000003a0: de84 3f3d d93c 9d3d 982e b63c 2666 743d
000003b0: 922d 583d c81a 88bd b076 573c a001 de3b
000003c0: 448a da3c 3496 babc a801 6f3c e0ad 20bd
000003d0: e599 9e3d fd20 36bd b2d8 593d bb16 ab3d
000003e0: 6616 7d3d 20eb 8b3b 00b3 783c 83cd 78bd
000003f0: 3e19 8fbd b4d0 90bc dacb 84bd 8047 c9bc

expected_output f4 [10, 5]
0.0 0.0 0.0 0.0 0.0 0.0 0.0 0.0
0.0 0.0 0.0 0.0 0.0 0.0 0.0 0.0
0.0 0.0 0.0 0.0 0.0 0.0 0.0 0.0
0.0 0.0 0.0 0.0 0.0 0.0 0.0 0.0
0.0 0.0 0.0 0.0 0.0 0.0 0.0 0.0
0.0 0.0 0.0 0.0 0.0 0.0 0.0 0.0
0.0 0.0
00000000: 0000 0000 0000 0000 0000 0000 0000 0000
00000010: 0000 0000 0000 0000 0000 0000 0000 0000
00000020: 0000 0000 0000 0000 0000 0000 0000 0000
00000030: 0000 0000 0000 0000 0000 0000 0000 0000
00000040: 0000 0000 0000 0000 0000 0000 0000 0000
00000050: 0000 0000 0000 0000 0000 0000 0000 0000
00000060: 0000 0000 0000 0000 0000 0000 0000 0000
00000070: 0000 0000 0000 0000 0000 0000 0000 0000
00000080: 0000 0000 0000 0000 0000 0000 0000 0000
00000090: 0000 0000 0000 0000 0000 0000 0000 0000
000000a0: 0000 0000 0000 0000 0000 0000 0000 0000
000000b0: 0000 0000 0000 0000 0000 0000 0000 0000
000000c0: 0000 0000 0000 0000

expected_lora_A f4 [2, 10]
-0.04964167 0.17188534 0.28005478 0.16541684 -0.010651886 -0.19856623 0.18763152 -0.054762274
-0.25632924 0.22011319 -0.114742324 0.21914384 -0.05667889 -0.09630394 0.25160894 -0.23809177
-0.10919683 0.29434982 -0.24072741 -0.11440651
00000000: 1055 4bbd b602 303e 5763 8f3e 0863 293e
00000010: 4085 2ebc f254 4bbe 7a22 403e 684e 60bd
00000020: 963d 83be 5a65 613e 06fe eabd 3e67 603e
00000030: 2028 68bd 003b c5bd e3d2 803e 54ce 73be
00000040: 96a2 dfbd 05b5 963e 3f81 76be f64d eabd

expected_lora_B f4 [5, 2]
0.0 0.0 0.0 0.0 0.0 0.0 0.0 0.0
0.0 0.0
00000000: 0000 0000 0000 0000 0000 0000 0000 0000
00000010: 0000 0000 0000 0000 0000 0000 0000 0000
00000020: 0000 0000 0000 0000

expected_lora_A f4 [5, 100]
-0.07670085 -0.0057219043 0.09820878 0.08337224 -0.0518319 0.020681188 -0.065658845 0.07672817
-0.047158565 -0.035433114 0.028891183 0.029134698 0.09343741 -0.089970194 0.01757975 0.08511818
0.07965357 -0.083525956 0.09086416 0.040445067 0.09134639 -0.04962763 0.07640947 0.036511533
0.097019814 0.016327977 -0.012103237 -0.04229585 -0.06251471 0.06635981 -0.06794898 -0.069439195
0.09665509 -0.019373454 -0.027862407 -0.09116503 0.033217825 0.06266541 -0.08541439 0.03229717
-0.026105866 0.049785458 0.07049023 0.071570344 -0.05102993 -0.008477069 0.087524615 -0.062891245
-0.061730694 -0.013062909 0.06627143 0.09052055 0.08747696 0.075473405 -0.092993654 0.09545853
-0.091417424 -0.09203311 0.025925405 0.0151868835 0.05721327 0.0022038817 0.06927236 0.028412454
-0.0025859326 0.02532608 -0.007669233 0.0622051 -0.048317086 -0.058473825 0.05541996 0.06309865
0.0028586239 0.029595442 0.05747626 -0.061224222 -0.09007722 -0.0024923682 0.051555403 -0.0072495714
-0.03023909 0.0015540123 0.011329666 0.011385821 -0.0582093 0.00640212 0.0527666 0.09765703
-0.0528494 -0.05194298 0.08274376 -0.0068627745 0.003362216 0.032690547 0.0006650314 0.03653986
-0.028324947 0.080238186 -0.07714536 0.029688247 0.036389537 -0.08993454 0.022861205 0.0016318709
-0.06246222 0.059483804 0.07075896 -0.035279952 0.017918147 0.028179549 0.053057767 0.033476807
0.095321305 0.06458009 -0.0059621707 -0.018649444 -0.040275194 -0.044624448 -0.05815598 0.03794066
-0.08163182 -0.096587196 -0.050921835 -0.013349749 0.058499224 0.02373749 0.017598055 0.056308903
0.07796184 0.057391517 -0.07704906 -0.011746623 -0.045627784 -0.07839371 -0.040621962 0.031694718
0.01715859 -0.053058505 -0.0067281276 0.0063372254 -0.032731928 -0.06473899 0.050294288 0.056407623
0.064029105 0.06335939 -0.05956296 -0.048838176 -0.012226507 -0.02197621 0.030160047 -0.0610479
-0.04297304 -0.02482362 0.032798447 -0.09444406 -0.091852024 -0.021354057 0.06700697 -0.055331983
-0.07545181 -0.09546474 0.035409383 0.098686285 -0.061176922 0.07369945 0.025506534 0.077071585
0.09272807 0.09899724 -0.013562977 -0.015392341 0.06290395 -0.023244366 -0.080139756 0.04374332
0.047184892 0.014551245 -0.0045484155 -0.016607486 0.06167399 0.037491642 0.021000996 0.020751074
0.058709584 -0.082525335 -0.036502518 0.026167832 0.016411051 0.088956125 -0.06961191 -0.047207918
-0.052182842 0.081537314 -0.04827888 0.09408707 -0.01865232 -0.022879086 -0.016812265 -0.015266001
0.084452875 -0.03603611 0.066424616 -0.038549162 0.042700686 -0.06563208 0.07301546 0.06903189
-0.09638496 -0.08772665 -0.04109601 -0.078079365 -0.015368521 -0.05293509 0.04965838 0.088620804
-0.043097116 0.09925742 0.0010135546 -0.027162865 -0.0998259 -0.0029510409 -0.023734614 -0.06588048
-0.07992537 -0.09859651 -0.013795674 -0.07205931 0.069858186 -0.03882376 0.004826583 0.022080436
-0.04236536 -0.029242828 -0.03607676 0.08210058 0.05616402 0.027464978 0.084118895 0.07430508
-0.01741334 -0.029298268 0.05958415 0.09888614 -0.058161415 0.007658258 -0.0024134144 -0.076026455
-0.04636853 0.012439333 -0.0029201284 -0.059520125 -0.00779023 0.086173765 -0.0064523667 0.023141682
00000000: 5615 9dbd d07e bbbb af21 c93d 11bf aa3d
00000010: b04d 54bd 986b a93c 2578 86bd a923 9d3d
00000020: 5729 41bd 5022 11bd 34ad ec3c e4ab ee3c
00000030: 1d5c bf3d 4b42 b8bd 6803 903c 7152 ae3d
00000040: 6921 a33d a80f abbd fd16 ba3d baa9 253d
00000050: d113 bb3d 5746 4bbd 917c 9c3d 1e8d 153d
00000060: 53b2 c63d 40c2 853c a84c 46bc 6a3e 2dbd
00000070: b607 80bd a7e7 873d d628 8bbd 2336 8ebd
00000080: 1bf3 c53d 14b5 9ebc b43f e4bc bbb4 babd
00000090: 6a0f 083d b956 803d bded aebd 0a4a 043d
000000a0: f8db d5bc d6eb 4b3d 2f5d 903d 7993 923d
000000b0: c304 51bd 68e3 0abc 1b40 b33d 20cd 80bd
000000c0: 53d9 7cbd d005 56bc 51b9 873d d762 b93d
000000d0: 1f27 b33d cd91 9a3d 7573 bebd c37f c33d
000000e0: 0f39 bbbd db7b bcbd 8461 d43c 68d2 783c
000000f0: 7658 6a3d 006f 103b abde 8d3d 3cc1 e83c
00000100: c078 29bb a478 cf3c 304e fbbb c6ca 7e3d
00000110: 23e8 45bd 4082 6fbd 0a00 633d dd39 813d
00000120: c057 3b3b 2472 f23c 3a6c 6b3d 40c6 7abd
00000130: 687a b8bd 0057 23bb c22b 533d d08d edbb
00000140: f8b7 f7bc 00b0 cb3a 10a0 393c 988b 3a3c
00000150: e06c 6ebd e0c8 d13b ca21 583d 6900 c83d
00000160: 9d78 58bd 2ac2 54bd 8f75 a93d 20e1 e0bb
00000170: a058 5c3b 86e6 053d 8055 2e3a d2aa 153d
00000180: b809 e8bc eb53 a43d 63fe 9dbd c434 f33c
00000190: 320d 153d 9a2f b8bd 6c47 bb3c 80e4 d53a
000001a0: 63d8 7fbd 4aa5 733d 13ea 903d b681 10bd
000001b0: 14c9 923c ccd8 e63c 1a53 593d fa1e 093d
000001c0: d137 c33d 9142 843d 505e c3bb b8c6 98bc
000001d0: 9af7 24bd 20c8 36bd f734 6ebd aa67 1b3d
000001e0: 952e a7bd 82cf c5bd 6a93 50bd e8b8 5abc
000001f0: e29c 6f3d 2075 c23c cc29 903c 2aa4 663d
00000200: 75aa 9f3d 5e13 6b3d e6cb 9dbd e874 40bc
00000210: 33e4 3abd e28c a0bd 3763 26bd 52d2 013d
00000220: 2c90 8c3c e053 59bd a077 dcbb 80a8 cf3b
00000230: ea11 06bd e095 84bd 6201 4e3d ae0b 673d
00000240: b121 833d 91c2 813d 4af8 73bd 8a0a 48bd
00000250: b051 48bc 7407 b4bc 3412 f73c 5d0d 7abd
00000260: 8004 30bd e85a cbbc aa57 063d e36b c1bd
00000270: ea1c bcbd b4ee aebc f33a 893d caa3 62bd
00000280: 7b86 9abd 0583 c3bd 6e09 113d 091c ca3d
00000290: a794 7abd bdef 963d 14f3 d03c b5d7 9d3d
000002a0: 37e8 bd3d 11bf ca3d 4037 5ebc 2830 7cbc
000002b0: c9d3 803d f86a bebc 5020 a4bd 322c 333d
000002c0: f244 413d 5868 6e3c e00a 95bb 6c0c 88bc
000002d0: de9d 7c3d d690 193d 480a ac3c 28fe a93c
000002e0: 7679 703d 0b03 a9bd aa83 15bd ec5d d63c
000002f0: 7870 863c a12e b63d b090 8ebd 175d 41bd
00000300: adbd 55bd 09fd a63d 13c0 45bd b9b0 c03d
00000310: c0cc 98bc ec6c bbbc e0b9 89bc 401e 7abc
00000320: a1f5 ac3d 9a9a 13bd a109 883d bae5 1dbd
00000330: eae6 2e3d 1d6a 86bd 2189 953d 9760 8d3d
00000340: 7a65 c5bd 08aa b3bd 4a54 28bd 13e8 9fbd
00000350: 40cc 7bbc 77d2 58bd 9666 4b3d d37e b53d
00000360: 9a86 30bd 7947 cb3d 40d9 843a a884 debc
00000370: 8571 ccbd 4066 41bb 186f c2bc 58ec 86bd
00000380: eaaf a3bd f8ec c9bd 4007 62bc d593 93bd
00000390: cf11 8f3d aa05 1fbd 5028 9e3b 08e2 b43c
000003a0: 4d87 2dbd a88e efbc 3ac5 13bd 5924 a83d
000003b0: 3e0c 663d 3cfe e03c 8746 ac3d 432d 983d
000003c0: 6ca6 8ebc ec02 f0bc 820e 743d d184 ca3d
000003d0: aa3a 6ebd 20f2 fa3b 602a 1ebb c2b3 9bbd
000003e0: edec 3dbd 58ce 4b3c a05f 3fbb 60cb 73bd
000003f0: 3045 ffbb df7b b03d 606e d3bb a093 bd3c

expected_lora_B f4 [10, 5]
0.0 0.0 0.0 0.0 0.0 0.0 0.0 0.0
0.0 0.0 0.0 0.0 0.0 0.0 0.0 0.0
0.0 0.0 0.0 0.0 0.0 0.0 0.0 0.0
0.0 0.0 0.0 0.0 0.0 0.0 0.0 0.0
0.0 0.0 0.0 0.0 0.0 0.0 0.0 0.0
0.0 0.0 0.0 0.0 0.0 0.0 0.0 0.0
0.0 0.0
00000000: 0000 0000 0000 0000 0000 0000 0000 0000
00000010: 0000 0000 0000 0000 0000 0000 0000 0000
00000020: 0000 0000 0000 0000 0000 0000 0000 0000
00000030: 0000 0000 0000 0000 0000 0000 0000 0000
00000040: 0000 0000 0000 0000 0000 0000 0000 0000
00000050: 0000 0000 0000 0000 0000 0000 0000 0000
00000060: 0000 0000 0000 0000 0000 0000 0000 0000
00000070: 0000 0000 0000 0000 0000 0000 0000 0000
00000080: 0000 0000 0000 0000 0000 0000 0000 0000
00000090: 0000 0000 0000 0000 0000 0000 0000 0000
000000a0: 0000 0000 0000 0000 0000 0000 0000 0000
000000b0: 0000 0000 0000 0000 0000 0000 0000 0000
000000c0: 0000 0000 0000 0000

expected_lora_A f4 [4, 10]
-0.073455244 -0.30045438 0.103767246 -0.18220618 -0.15050223 -0.16090514 -0.1488514 0.25909302
-0.26285017 -0.121294305 0.2709553 -0.14982711 -0.105682805 -0.049977094 0.26295397 0.19452742
-0.312688 0.12860751 0.12771058 0.13361219 0.20627233 0.17046303 -0.14140019 -0.27154347
0.11128634 -0.026727974 -0.17736483 -0.053271055 0.25680235 0.06945816 0.29468307 -0.21950334
0.22487369 -0.02591014 -0.08958542 0.120909214 -0.003454268 -0.035844564 0.110141456 -0.0011000931
00000000: b46f 96bd 28d5 99be ec83 d43d 4294 3abe
00000010: 421d 1abe 51c4 24be 806c 18be d7a7 843e
00000020: 4c94 86be 2669 f8bd a7ba 8a3e 476c 19be
00000030: 3a70 d8bd c8b4 4cbd e7a1 863e 3232 473e
00000040: a418 a0be b0b1 033e 90c6 023e a2d1 083e
00000050: 0e39 533e dc8d 2e3e 36cb 10be bf07 8bbe
00000060: 18ea e33d a0f4 dabc 209f 35be c032 5abd
00000070: 997b 833e 1440 8e3d b3e0 963e 7cc5 60be
00000080: 4a45 663e 8041 d4bc 9078 b7bd 409f f73d
00000090: 0061 62bb c0d1 12bd d891 e13d 0031 90ba

expected_lora_B f4 [5, 4]
0.0 0.0 0.0 0.0 0.0 0.0 0.0 0.0
0.0 0.0 0.0 0.0 0.0 0.0 0.0 0.0
0.0 0.0 0.0 0.0
00000000: 0000 0000 0000 0000 0000 0000 0000 0000
00000010: 0000 0000 0000 0000 0000 0000 0000 0000
00000020: 0000 0000 0000 0000 0000 0000 0000 0000
00000030: 0000 0000 0000 0000 0000 0000 0000 0000
00000040: 0000 0000 0000 0000 0000 0000 0000 0000

expected_lora_A f4 [5, 100]
0.042202763 0.03229796 -0.07910164 0.04047712 0.025322206 0.03479985 0.044217564 0.07284201
0.08887827 0.053550847 0.07720221 0.084081374 -0.044242777 0.07410223 0.052405067 0.06441324
0.06281168 0.008195102 -0.090535894 0.0049229637 -0.08742877 -0.09643159 0.013360664 0.09626759
-0.08206695 -0.012374878 -0.0093081 0.02961 0.086648725 -0.047534514 -0.009714261 -0.096410334
0.03465333 -0.02785255 0.031707384 -0.081060246 -0.073507294 -0.03434895 0.073084004 0.0053626746
0.0904016 -0.08001979 -0.025254644 0.05005265 -0.066737294 -0.097016566 -0.0901075 -0.0875543
-0.08012962 -0.002424702 0.0016524196 -0.047546804 0.0447947 0.015480682 0.0030450225 -0.05563556
-0.034134664 -0.05986085 0.027891286 -0.06955558 -0.036113188 -0.08606974 -0.011947177 0.018981017
-0.045459162 0.021529153 -0.051689852 -0.031604968 0.06484877 -0.026895978 0.06663362 -0.06456301
0.038025104 0.082590245 -0.050657608 -0.06057614 -0.049994793 0.015913881 -0.008919433 0.08429081
0.009373806 -0.00011263788 0.029106803 -0.077498555 0.08135123 0.09995747 -0.0728753 0.011273064
-0.032672092 0.07670153 0.049751185 -0.033751406 -0.08769222 0.026244782 -0.038732626 0.028259017
0.051601402 0.0633669 0.010811314 -0.069477364 -0.04597162 0.07922017 -0.09501421 -0.022164121
-0.023065105 -0.041968882 -0.006373979 -0.06867179 -0.09999795 0.09657901 0.08878022 -0.08412176
0.07219166 -0.039474856 0.047905214 0.09613059 0.05109466 -0.08985306 0.061102204 -0.07928181
-0.005183719 -0.04948772 0.033231206 -0.08536909 0.068816446 -0.09978052 -0.09195379 0.09080634
0.0023725256 -0.011339024 0.0659984 -0.078123055 0.027920611 -0.054985177 0.017055765 0.031010218
0.046843596 0.008230671 -0.07125728 -0.06410533 -0.009498104 0.0889075 -0.06702365 -0.04595375
0.034523614 -0.059667457 -0.080124915 0.08111363 -0.030945383 -0.06575379 0.03323228 -0.004287556
0.014798865 -0.084867276 -0.06830558 -0.08313447 0.011711478 -0.05837592 -0.0030369982 -0.044436585
0.0003104806 -0.056390595 -0.06303918 -0.040759888 -0.0031812936 0.0684307 -0.01970072 0.08401088
0.004828252 -0.03672882 0.09248326 0.051997475 -0.04290259 0.0067039877 0.02241993 -0.05848464
0.057482876 0.084277846 0.024027012 0.012103841 0.09596204 -0.043702997 0.06377543 -0.03773116
0.006303832 -0.08267926 -0.099941514 0.0011813045 -0.046564233 0.095331706 0.012699045 0.080990545
-0.01922623 0.08675773 -0.047897853 -0.015242614 -0.012809619 0.05470664 -0.0056097955 0.02906821
0.05953624 -0.057196643 -0.0780731 -0.08908518 0.046247236 0.04239688 -0.076359525 -0.0032882541
0.05754765 0.09973457 -0.07872089 0.077900775 0.04818543 0.08578885 -0.02725003 0.048746772
0.008449554 0.041245215 -0.047434915 -0.089604154 0.083588846 -0.08434981 -0.021809556 0.063286714
0.017913379 -0.0028396398 -0.092588 0.03001479 0.006662488 -0.030864596 -0.0038686171 -0.029076196
-0.02311176 -0.004695192 -0.009212732 -0.0011222214 -0.015320018 -0.009118818 0.017591551 -0.04668653
0.0007390827 -0.046162654 0.042476423 -0.07955162 -0.09679836 -0.0786532 -0.001338698 -0.01811155
0.08961599 -0.023873553 0.011190906 -0.08367586 -0.032958463 0.003913954 -0.06993725 -0.018799737
00000000: cedc 2c3d de4a 043d 0a00 a2bd 56cb 253d
00000010: 8470 cf3c 4a8a 0e3d 7a1d 353d 312e 953d
00000020: cf05 b63d 2258 5b3d 311c 9e3d db32 ac3d
00000030: ea37 35bd e9c2 973d b2a6 563d 17eb 833d
00000040: 69a3 803d c044 063c e26a b9bd d050 a13b
00000050: db0d b3bd ed7d c5bd b0e6 5a3c f127 c53d
00000060: b812 a8bd 00c0 4abc 0081 18bc ac90 f23c
00000070: e374 b13d 8db3 42bd 9028 1fbc c872 c5bd
00000080: a6f0 0d3d 082b e4bc 9adf 013d ea02 a6bd
00000090: fe8a 96bd 7cb1 0cbd 11ad 953d 60b9 af3b
000000a0: 7924 b93d 6ae1 a3bd d4e2 cebc 0204 4d3d
000000b0: 90ad 88bd 9fb0 c6bd 488a b8bd ab4f b3bd
000000c0: 001b a4bd c0e7 1ebb 0096 d83a 70c0 42bd
000000d0: a67a 373d b0a2 7d3c 008f 473b 1de2 63bd
000000e0: cad0 0bbd a730 75bd 447c e43c 2873 8ebd
000000f0: 6ceb 13bd 5545 b0bd 18be 43bc 147e 9b3c
00000100: 6333 3abd e85d b03c bdb8 53bd 3674 01bd
00000110: 6fcf 843d f454 dcbc 3577 883d 9d39 84bd
00000120: 36c0 1b3d 1325 a93d 5a7e 4fbd b01e 78bd
00000130: 57c7 4cbd d45d 823c d022 12bc a9a0 ac3d
00000140: 9894 193c 0038 ecb8 6471 ee3c 90b7 9ebd
00000150: 799b a63d 81b6 cc3d a53f 95bd a8b2 383c
00000160: 2cd3 05bd b115 9d3d e6c7 4b3d ea3e 0abd
00000170: fb97 b3bd 4cff d63c 1aa6 1ebd 747f e73c
00000180: fe5b 533d 81c6 813d f021 313c 264a 8ebd
00000190: bd4c 3cbd 2f3e a23d cf96 c2bd 8891 b5bc
000001a0: 08f3 bcbc 90e7 2bbd d0dc d0bb cca3 8cbd
000001b0: bacb ccbd 37cb c53d 67d2 b53d 0848 acbd
000001c0: 39d9 933d 63b0 21bd 4238 443d 1de0 c43d
000001d0: a248 513d e204 b8bd 4e46 7a3d 805e a2bd
000001e0: 30dc a9bb a3b3 4abd 721d 083d fdd5 aebd
000001f0: a3ef 8c3d bb59 ccbd 4552 bcbd adf8 b93d
00000200: 607c 1b3b 50c7 39bc 2b2a 873d fbfe 9fbd
00000210: c4b9 e43c 2338 61bd 88b8 8b3c 2409 fe3c
00000220: 12df 3f3d f0d9 063c 56ef 91bd a849 83bd
00000230: f09d 1bbc 2315 b63d b243 89bd 003a 3cbd
00000240: a268 0d3d dd65 74bd 8818 a4bd e71e a63d
00000250: 2c81 fdbc eca9 86bd 921e 083d a07e 8cbb
00000260: f076 723c e5ce adbd cce3 8bbd 6842 aabd
00000270: 80e1 3f3c 971b 6fbd 6008 47bb 2303 36bd
00000280: 00c8 a239 d3f9 66bd b01a 81bd d7f3 26bd
00000290: 407d 50bb 6525 8c3d 6863 a1bc e50d ac3d
000002a0: 5036 9e3b f670 16bd dd67 bd3d 4efb 543d
000002b0: a0ba 2fbd 20ad db3b 00aa b73c 978d 6fbd
000002c0: 2a73 6b3d dd99 ac3d 4cd4 c43c 304f 463c
000002d0: bf87 c43d ea01 33bd b19c 823d fd8b 1abd
000002e0: 6090 ce3b be53 a9bd 23ae ccbd 00d6 9a3a
000002f0: 23ba 3ebd 453d c33d a80f 503c 5fde a53d
00000300: 5480 9dbc 09ae b13d 8a30 44bd 28bc 79bc
00000310: 70df 51bc 1214 603d 60d2 b7bb 7420 ee3c
00000320: 46dc 733d 0747 6abd cae4 9fbd 4a72 b6bd
00000330: be6d 3d3d 5aa8 2d3d 6262 9cbd c07f 57bb
00000340: 16b7 6b3d a341 cc3d 6b38 a1bd 718a 9f3d
00000350: 165e 453d 11b2 af3d 743b dfbc b2aa 473d
00000360: 0070 0a3c bef0 283d 1d4b 42bd 6282 b7bd
00000370: a130 ab3d 98bf acbd f4a9 b2bc 779c 813d
00000380: 14bf 923c 4019 3abb c79e bdbd 94e1 f53c
00000390: 0051 da3b c0d7 fcbc a088 7dbb 3431 eebc
000003a0: e054 bdbc 20da 99bb 00f1 16bc 8017 93ba
000003b0: d000 7bbc 1867 15bc 281c 903c 603a 3fbd
000003c0: 00bf 413a 0d15 3dbd c2fb 2d3d f6eb a2bd
000003d0: 383e c6bd ee14 a1bd 4077 afba ac5e 94bc
000003e0: 9788 b73d 7892 c3bc 105a 373c 405e abbd
000003f0: 74ff 06bd a040 803b 433b 8fbd e801 9abc

expected_lora_B f4 [10, 5]
0.0 0.0 0.0 0.0 0.0 0.0 0.0 0.0
0.0 0.0 0.0 0.0 0.0 0.0 0.0 0.0
0.0 0.0 0.0 0.0 0.0 0.0 0.0 0.0
0.0 0.0 0.0 0.0 0.0 0.0 0.0 0.0
0.0 0.0 0.0 0.0 0.0 0.0 0.0 0.0
0.0 0.0 0.0 0.0 0.0 0.0 0.0 0.0
0.0 0.0
00000000: 0000 0000 0000 0000 0000 0000 0000 0000
00000010: 0000 0000 0000 0000 0000 0000 0000 0000
00000020: 0000 0000 0000 0000 0000 0000 0000 0000
00000030: 0000 0000 0000 0000 0000 0000 0000 0000
00000040: 0000 0000 0000 0000 0000 0000 0000 0000
00000050: 0000 0000 0000 0000 0000 0000 0000 0000
00000060: 0000 0000 0000 0000 0000 0000 0000 0000
00000070: 0000 0000 0000 0000 0000 0000 0000 0000
00000080: 0000 0000 0000 0000 0000 0000 0000 0000
00000090: 0000 0000 0000 0000 0000 0000 0000 0000
000000a0: 0000 0000 0000 0000 0000 0000 0000 0000
000000b0: 0000 0000 0000 0000 0000 0000 0000 0000
000000c0: 0000 0000 0000 0000

input f4 [4, 10]
-0.47751078 -0.6157176 -0.5776585 1.328481 -0.23581149 0.52887625 0.7701463 0.64753324
0.25121766 0.49432024 -1.5108445 -1.4852138 -0.3026189 -1.263524 1.618986 0.41567108
-1.0799541 -0.48735502 -0.30004558 1.4068663 -0.23092154 -1.0837637 -0.5244965 0.43674588
-0.16129357 2.1604903 0.10027264 0.25206828 -0.37061012 0.4716849 0.29175565 1.9362236
0.9963012 0.2009752 -1.3789767 1.0575331 2.0014591 0.13250746 -0.40428168 1.310374
00000000: 4b7c f4be ab9f 1dbf 6de1 13bf aa0b aa3f
00000010: 9178 71be 6f64 073f 4f28 453f bdc4 253f
00000020: 9a9f 803e 8b17 fd3e 5a63 c1bf 7c1b bebf
00000030: ddf0 9abe 28bb a1bf ef3a cf3f d7d2 d43e
00000040: f03b 8abf 9986 f9be 939f 99be 3214 b43f
00000050: b276 6cbe c5b8 8abf 6745 06bf 289d df3e
00000060: 242a 25be 7945 0a40 be5b cd3d 180f 813e
00000070: 9cc0 bdbe af80 f13e ff60 953e 2dd6 f73f
00000080: 980d 7f3f 71cc 4d3e 4f82 b0bf 3f5d 873f
00000090: e817 0040 09b0 073e 02fe cebe 56ba a73f

expected_output f4 [4, 5]
-0.5362031 0.23498721 -0.51008886 0.120102726 0.35182312 -0.016524807 0.45085976 -1.5574427
0.7107727 0.72515523 -0.4766992 -0.16528925 -0.4570521 0.1742992 0.19191448 0.8193831
-0.98151696 0.20986745 -0.24878608 -0.52013594
00000000: 9b44 09bf 7da0 703e 2f95 02bf 6bf8 f53d
00000010: 2922 b43e 085f 87bc 17d7 e63e 485a c7bf
00000020: 33f5 353f c6a3 393f eb11 f4be 9641 29be
00000030: bc02 eabe 7d7b 323e 3b85 443e 17c3 513f
00000040: b244 7bbf 7ee7 563e c7c1 7ebe a127 05bf

input f4 [10, 100]
2.0205386 -0.9772306 1.0343901 -1.32856 0.37326443 0.6932109 -0.059380505 0.26075295
-0.60622084 -2.1359375 1.2172555 -0.086959064 -0.11904947 0.41355726 0.7197439 -0.5523767
0.80115515 0.6315349 -0.331754 -0.41291904 0.14441098 -0.012596014 0.46593022 -0.5714419
0.5522983 -1.7517091 -1.1973176 2.1994324 -0.92682546 -1.1820811 -1.4899673 0.8694542
-0.9076396 0.89038116 -0.25656438 -0.75722414 0.47295308 0.3755578 0.24364884 -1.041345
0.28399926 0.18226442 0.15869644 -0.393523 1.196163 -0.04980263 -0.32799268 1.0473117
0.921715 -0.45089355 0.09397663 0.26281404 -1.3839216 -0.20882896 -1.7496582 1.3305275
-0.050665833 -0.5502891 -0.5377363 -1.9956497 -1.6249626 1.1730587 -0.9640505 -1.4851246
1.8686266 1.4295336 2.1221638 -0.3929336 -1.7645478 -1.2075037 0.45442358 0.58337736
-0.8015341 0.5296646 0.8511284 0.5383825 -0.71305877 0.26970986 -0.37953374 1.1479127
0.7714684 0.6735284 -0.46604562 0.9191676 0.65428734 1.0669509 -1.1657406 2.277328
1.2043947 -0.28093714 0.47618583 0.18924446 1.3401536 -1.9286413 0.16121225 -0.99307793
1.5349226 0.7657038 0.708165 -1.0506384 -1.0412501 0.18321668 0.65433604 -1.0976894
0.1603405 -1.659453 1.3403959 -0.51734126 -0.3942269 -1.0967356 -2.0159216 0.80615103
-0.8547036 0.13745463 -1.1115478 -0.6860145 -0.10139908 1.3046148 -0.87957704 0.89564437
-0.514639 -0.8132705 -2.2587945 -1.4616174 0.519688 -0.6987655 -0.17967968 -0.0656455
1.601468 -0.64079195 1.3930777 -0.9674616 -0.6791523 -0.027495077 1.2073674 -0.16671845
-0.4221728 0.6170885 -0.3437876 1.4441872 1.5265057 -0.26898563 -1.0796171 -0.14004333
-0.5940809 1.2899846 -0.104833074 0.12903097 1.0740029 0.5127579 -0.9790016 -1.1589403
1.6880162 -1.1058245 0.59679705 -1.2851617 -0.61083764 -1.3205955 -0.13212174 -0.5987606
0.6273644 0.2685385 -1.0224228 0.010157334 -0.4863104 1.4127884 -0.5591486 0.6381134
-0.20841464 0.50440764 -0.12405 0.6217374 -0.8428509 -1.895752 0.6238484 0.62069327
-0.0065374705 1.3796804 0.18896797 1.4607677 0.52425975 -1.1417431 0.7041208 -0.529652
-0.3051235 0.767399 0.35957634 0.109002486 0.51510936 -0.19247136 1.162875 -1.2594953
-0.8490898 -1.1016481 -0.062033746 -0.17394996 0.16736156 -0.12809895 -0.9388879 0.6281216
-1.2623847 -1.4397694 -0.5760021 0.7698815 -0.005070685 -0.6179281 0.18137282 0.1507383
0.34837517 -0.42705312 -0.6995268 0.40758756 -2.6688082 0.8236121 -0.11010943 -0.42639205
0.2541223 -1.164634 -1.6475335 0.3101554 1.6961315 -0.33670035 1.080411 1.146665
0.77562493 -0.94865906 0.23693796 -0.29445678 -0.93448734 0.58820087 1.9002473 0.9111663
0.82827103 1.3427609 -0.044173744 0.3051367 1.652913 -0.32917294 -1.0348668 -1.0599191
-0.11043652 1.5586523 0.31054133 -0.2840948 0.8034586 0.3484613 -1.4890779 -0.47825274
-0.424487 -0.09541698 -0.44829163 -1.1191661 0.0098032355 2.4186516 -0.69129175 1.8740498
00000000: 8150 0140 c92b 7abf e566 843f 410e aabf
00000010: 841c bf3e 4576 313f f938 73bd 6981 853e
00000020: 4a31 1bbf 33b3 08c0 07cf 9b3f 9817 b2bd
00000030: 35d0 f3bd c7bd d33e 2341 383f 8f68 0dbf
00000040: 8118 4d3f 45ac 213f a9db a9be 206a d3be
00000050: 79e0 133e 835f 4ebc 688e ee3e 044a 12bf
00000060: 6c63 0d3f 0138 e0bf b441 99bf 80c3 0c40
00000070: 6f44 6dbf 6f4e 97bf 40b7 bebf 8d94 5e3f
00000080: 125b 68bf 05f0 633f 685c 83be 71d9 41bf
00000090: e826 f23e 1d49 c03e 157f 793e cb4a 85bf
000000a0: 5a68 913e 86a3 3a3e 5281 223e d97b c9be
000000b0: df1b 993f d8fd 4bbd a8ee a7be 4f0e 863f
000000c0: 84f5 6b3f 85db e6be d276 c03d 908f 863e
000000d0: 5824 b1bf 42d7 55be cdf4 dfbf ba4e aa3f
000000e0: fa86 4fbd bfdf 0cbf 16a9 09bf 7371 ffbf
000000f0: c6fe cfbf ca26 963f 03cc 76bf 9018 bebf
00000100: 282f ef3f f5fa b63f 88d1 0740 982e c9be
00000110: b4dc e1bf 7b8f 9abf 35aa e83e 3858 153f
00000120: 5731 4dbf 1998 073f 8de3 593f 6fd3 093f
00000130: 058b 36bf 6917 8a3e 3f52 c2be ceee 923f
00000140: f47e 453f 5b6c 2c3f 889d eebe 914e 6b3f
00000150: 607f 273f d991 883f fd36 95bf bebf 1140
00000160: 9b29 9a3f fed6 8fbe a1ce f33e 4dc9 413e
00000170: 278a ab3f b8dd f6bf d314 253e 5b3a 7ebf
00000180: 5878 c43f 2a05 443f 4d4a 353f 527b 86bf
00000190: af47 85bf 279d 3b3e 9182 273f 1681 8cbf
000001a0: 4d30 243e f568 d4bf 1892 ab3f 7a70 04bf
000001b0: 1cd8 c9be d561 8cbf dc04 01c0 ea5f 4e3f
000001c0: dbcd 5abf e8c0 0c3e 3347 8ebf a59e 2fbf
000001d0: 52aa cfbd 9efd a63f f62b 61bf f348 653f
000001e0: 62bf 03bf 7f32 50bf 1790 10c0 4716 bbbf
000001f0: 460a 053f 4ce2 32bf f3fd 37be 2671 86bd
00000200: e7fc cc3f f10a 24bf 5f50 b23f 90ab 77bf
00000210: eddc 2dbf 5b3d e1bc 048b 9a3f 3eb8 2abe
00000220: 0927 d8be 83f9 1d3f ee04 b0be 20db b83f
00000230: 8a64 c33f 7cb8 89be e530 8abf 8567 0fbe
00000240: b015 18bf 371e a53f b9b2 d6bd b220 043e
00000250: ed78 893f 1a44 033f d99f 7abf 2858 94bf
00000260: ea10 d83f a88b 8dbf b1c7 183f 2e80 a4bf
00000270: db5f 1cbf 4609 a9bf ec4a 07be 6048 19bf
00000280: f49a 203f e17d 893e c0de 82bf f26a 263c
00000290: adfd f8be 40d6 b43f 5d24 0fbf 665b 233f
000002a0: a66a 55be dc20 013f ed0d febd 2f2a 1f3f
000002b0: 14c5 57bf 00a8 f2bf 87b4 1f3f c1e5 1e3f
000002c0: 4738 d6bb 5e99 b03f d280 413e 70fa ba3f
000002d0: e335 063f a324 92bf 4341 343f 4697 07bf
000002e0: 2639 9cbe 4374 443f 641a b83e b23c df3d
000002f0: 35de 033f 3617 45be 17d9 943f 2437 a1bf
00000300: f35d 59bf ce02 8dbf 1917 7ebd f01f 32be
00000310: d460 2b3e 5f2c 03be f55a 70bf 94cc 203f
00000320: d295 a1bf 5d4a b8bf e074 13bf f416 453f
00000330: fd27 a6bb 8930 1ebf ccb9 393e 245b 1a3e
00000340: 3b5e b23e b5a6 dabe 3014 33bf 51af d03e
00000350: c1cd 2ac0 3ed8 523f 0e81 e1bd 0f50 dabe
00000360: 511c 823e ba12 95bf 61e2 d2bf b0cc 9e3e
00000370: d61a d93f fd63 acbe e84a 8a3f ebc5 923f
00000380: 5b8f 463f 52db 72bf dd9f 723e 0ac3 96be
00000390: 903a 6fbf 5594 163f 4e3b f33f 3242 693f
000003a0: 9209 543f 97df ab3f 87ef 34bd e13a 9c3e
000003b0: a792 d33f 5b89 a8be 8476 84bf 6eab 87bf
000003c0: 8b2c e2bd eb81 c73f 46ff 9e3e e074 91be
000003d0: 76af 4d3f 8569 b23e 1b9a bebf 8bdd f4be
000003e0: 5c56 d9be fa69 c3bd 7b86 e5be d640 8fbf
000003f0: c09d 203c 30cb 1a40 7ff8 30bf dde0 ef3f

expected_output f4 [10, 10]
0.49184868 0.4164244 0.7634065 -0.44443244 -0.748356 0.5056867 0.36138913 0.73454875
0.08873927 0.9082632 -0.2799834 0.17297298 1.3033854 0.08265016 1.0218029 -0.10764055
-0.18865824 -0.5814397 -0.7289388 -0.5935639 -0.12835553 -0.19824849 -0.8608733 -0.22581452
-0.38182288 -0.14919603 0.5186987 0.65840065 -0.3067734 0.10555089 -1.1244799 -0.34960234
0.07752719 -0.88684535 -0.103893064 0.9575531 0.7061466 -0.34019846 -0.16354543 -0.024516217
-0.2778572 0.03696169 0.1452516 0.46906734 0.045972563 0.33401576 -1.0010632 0.91695654
-0.061576255 -0.039456807 0.14352736 -0.48011276 0.11986501 -1.0852513 0.0971236 0.7412293
0.36061236 0.06782751 0.21466187 -0.104590304 0.57040554 1.3034788 0.41370767 -0.26518923
0.22324637 -1.3895369 0.0054383725 0.42023996 0.41254607 0.34882143 0.50526327 -0.0011940226
-0.12984337 -0.41973704 -0.09190268 -0.7792647 0.48076573 -0.15156531 0.32762644 -0.040241502
1.1185793 0.7218954 0.7285609 -0.44065848 -1.5197629 -0.519434 0.36124453 -0.067851745
1.0958222 -0.09930337 0.5146107 0.2827455 0.33833942 1.1581787 0.6182454 -0.7048107
0.3120327 -0.13478348 -0.2403445 -0.0126343295
00000000: 97d3 fb3e 9435 d53e 9c6e 433f a68c e3be
00000010: 4294 3fbf af74 013f ff07 b93e 630b 3c3f
00000020: efbc b53d f083 683f fc59 8fbe d41f 313e
00000030: 55d5 a63f 7d44 a93d 70ca 823f a672 dcbd
00000040: a02f 41be 3bd9 14bf bc9b 3abf cef3 17bf
00000050: a26f 03be a701 4bbe 3162 5cbf ec3b 67be
00000060: 4a7e c3be d8c6 18be 70c9 043f f28c 283f
00000070: 6711 9dbe 112b d83d f5ee 8fbf 14ff b2be
00000080: 93c6 9e3d 4c08 63bf e3c5 d4bd 3322 753f
00000090: 06c6 343f 7e2e aebe 7478 27be 3cd6 c8bc
000000a0: 4d43 8ebe 2465 173d d6bc 143e 9829 f03e
000000b0: ba4d 3c3d 1d04 ab3e d722 80bf aabd 6a3f
000000c0: 6237 7cbd 769d 21bd d6f8 123e 57d1 f5be
000000d0: c97b f53d 84e9 8abf bde8 c63d 34c1 3d3f
000000e0: 2fa2 b83e 26e9 8a3d 52d0 5b3e 7133 d6bd
000000f0: 1906 123f 65d8 a63f 7ed1 d33e e2c6 87be
00000100: b29a 643e 58dc b1bf 6034 b23b b129 d73e
00000110: 3d39 d33e b998 b23e ef58 013f c080 9cba
00000120: a9f5 04be c6e7 d6be 7937 bcbd e47d 47bf
00000130: ed26 f63e f033 1bbe a7be a73e 46d4 24bd
00000140: 9b2d 8f3f 23ce 383f f882 3a3f fd9d e1be
00000150: 9787 c2bf a0f9 04bf 0bf5 b83e dbf5 8abd
00000160: e743 8c3f 915f cbbd 87bd 033f 05c4 903e
00000170: d33a ad3e 333f 943f 5545 1e3f 796e 34bf
00000180: c0c2 9f3e ae04 0abe de1c 76be 3800 4fbc

input f4 [4, 10]
-1.2264265 -0.0059253233 -0.9706173 -0.28903726 1.6747731 -0.9298793 2.0031028 -0.02612571
-1.6429907 0.946711 0.53497136 1.4080023 0.46343565 -1.5683035 -1.3499047 0.010367449
0.7021714 1.5207394 -0.21000382 -0.32996085 -0.21725878 0.20162721 0.19061835 -0.32917538
-0.6204424 -1.4199418 1.2572774 -0.3225908 -0.70175433 -0.9313807 -0.44082922 0.69640154
0.7595364 -0.36776206 -0.72781587 -0.33356255 0.639696 0.7637038 -1.0431623 -0.53597224
00000000: 8bfb 9cbf 3729 c2bb 607a 78bf b1fc 93be
00000010: f75e d63f 920c 6ebf d632 0040 9605 d6bc
00000020: 854d d2bf a75b 723f e2f3 083f 6b39 b43f
00000030: 7047 ed3e 2bbe c8bf adc9 acbf 3cdc 293c
00000040: 81c1 333f 97a7 c23f 3e0b 57be a1f0 a8be
00000050: 1679 5ebe 5d77 4e3e 7531 433e ad89 a8be
00000060: 50d5 1ebf a7c0 b5bf 77ee a03f 9f2a a5be
00000070: 2ca6 33bf f76e 6ebf 5eb4 e1be 5f47 323f
00000080: fa70 423f 4f4b bcbe 2452 3abf b6c8 aabe
00000090: 1ec3 233f 1882 433f 5886 85bf 7a35 09bf

lora_A f4 [2, 10]
-0.75201106 -0.98850334 -0.37621143 0.16669278 1.0601656 -1.5735263 -0.3625957 -2.3189986
0.68420255 0.9212597 -0.78084415 0.21340162 -0.95849776 -0.586384 -1.1605543 -1.5349789
-0.9879253 -1.7279451 -0.08231809 0.22289546
00000000: cc83 40bf 8e0e 7dbf c99e c0be 83b1 2a3e
00000010: 82b3 873f 4f69 c9bf 25a6 b9be 796a 14c0
00000020: e627 2f3f add7 6b3f 67e5 47bf f485 5a3e
00000030: 1c60 75bf 431d 16bf 0b8d 94bf 307a c4bf
00000040: ace8 7cbf 4e2d ddbf 6396 a8bd b53e 643e

lora_B f4 [5, 2]
0.32491708 -0.30574715 0.5413146 -0.68837416 -0.8933343 1.3113741 -0.74324644 0.14967851
2.8172364 -0.046468463
00000000: 885b a63e e48a 9cbe 9893 0a3f 4a39 30bf
00000010: 8fb1 64bf 1bdb a73f 6645 3ebf 5345 193e
00000020: 9a4d 3440 b755 3ebd

expected_output f4 [4, 5]
0.90836734 -0.21042415 0.84815454 -0.15055597 0.7594154 0.17536381 0.5576236 0.37727955
0.7717574 0.373413 0.6731649 0.53555053 0.40049395 0.79416484 0.73470765 0.57582384
0.288985 0.66969764 0.8861962 0.46620783
00000000: c38a 683f 6e79 57be a820 593f 582b 1abe
00000010: 0c69 423f 9292 333e 6cc0 0e3f c92a c13e
00000020: e591 453f fd2f bf3e 8954 2c3f d719 093f
00000030: 8b0d cd3e 634e 4b3f cd15 3c3f 3169 133f
00000040: d8f5 933e 4e71 2b3f c1dd 623f cbb2 ee3e

input f4 [10, 100]
1.0041574 -1.0567756 -0.012403634 -1.2665169 -0.31475714 0.68425924 -0.9326179 0.4369454
0.8603949 -0.50052774 0.5062102 0.6676695 0.60622495 -0.8074101 0.05832036 -0.28729725
0.19727965 0.039772186 -0.382778 -0.22051585 -0.3371414 1.5478606 -0.13456567 -0.6607023
-0.53636366 0.52142406 -0.048102412 -0.6482935 0.43408275 -0.12997603 0.17032208 -1.8401135
0.6623657 -0.7675044 0.82176614 1.0652392 -1.3677267 -0.88515633 -2.99649 -0.39782542
0.03319593 0.9838057 -1.398049 1.5664694 0.8488846 -0.6670343 0.05587877 -2.362306
-2.040841 0.8085492 -0.79818547 -0.100095145 0.9943866 -1.2500302 -0.20300311 1.1791174
-0.40379754 -0.43006006 0.8634309 2.36567 0.5047458 0.30617797 1.5419899 -0.38088623
0.33322746 0.43924338 0.26054177 1.3696725 0.28938743 0.33265463 1.6157591 1.2941635
-0.8325593 -0.8066505 -1.8628324 -1.1720595 -0.9085099 -0.17589484 0.27663347 -1.2997186
-1.406719 0.16198884 1.1838142 0.06247436 -0.8301185 0.60126 0.5641336 -0.044370044
0.25562966 -0.009125278 -0.6815473 1.0843517 -0.6306915 1.1220071 -0.50597787 0.4957314
0.7673532 1.3793004 -0.42594385 2.5181549 -0.003752578 0.98228806 -0.93731534 2.1285849
0.4368616 -0.40711498 -1.3760974 -0.7019687 0.32075888 -0.8989341 -2.07793 -0.1998739
-1.0830989 -0.6894511 0.79353744 -0.3241629 0.7316275 0.53005826 -0.30402315 -1.9511173
0.7547995 0.82610625 0.22608921 -0.5567909 -1.7406644 0.26144302 -0.48909745 2.0916262
-1.5244921 0.95704937 1.8883425 0.6921958 0.79370844 2.2988226 0.6341689 0.6281957
0.6632868 -1.706238 -0.57959557 -0.28730407 -0.77044404 0.5143291 -0.09109857 0.17360789
-0.19954136 -1.3687173 0.4900287 -0.092806704 0.31469285 0.32797945 0.5733679 -1.1508663
-0.20367216 0.33630642 -1.2147453 1.7537291 1.1540508 -1.907548 -1.3137891 -0.10363392
-1.4433107 -1.6493968 -0.6149833 0.08136715 -1.133003 0.1461791 1.113363 0.08280173
-0.07051965 -0.6131886 -0.2298653 0.30846927 -0.2310026 -1.6776248 -0.08209941 0.92251545
0.603022 1.667158 -0.66693443 -0.5001425 1.4026437 -0.89083207 -1.5132025 0.35948285
-0.43126398 1.4563209 -0.89930105 -1.0975211 0.45893776 -0.7784971 -0.077645026 0.8707901
0.7901893 -1.9266925 -0.73679584 -0.4014303 -0.2405488 0.4314916 -0.5487779 2.2967803
-1.6027577 0.36516353 0.48895177 1.2728136 1.4108269 1.6470016 -1.3785414 1.4951245
0.042696755 0.5636529 -0.99393755 -0.24283408 1.0808178 -0.38669294 -0.9486876 -1.8024313
-0.18055357 0.49538478 0.38440427 1.7567703 0.87183976 1.2743175 -1.4636726 -1.0781119
0.29804727 0.3316618 -0.044948995 -0.83954054 -0.48019093 -0.9740082 0.5937474 -0.40560925
-0.66795367 1.0705447 1.2309397 0.33932784 0.3966443 -1.3548812 1.6414427 1.8074002
0.9611559 -0.6535206 0.23717037 0.09920553 0.6773661 -1.320863 0.5343767 0.49847046
0.13787912 -1.3244444 -0.009794055 0.2708215 -0.73510903 -1.3635846 -0.46898505 -0.11590117
00000000: 3b88 803f 6c44 87bf 9d38 4bbc 3a1d a2bf
00000010: d927 a1be 9d2b 2f3f 0cc0 6ebf 4fb7 df3e
00000020: d742 5c3f 9622 00bf fe96 013f 63ec 2a3f
00000030: 8f31 1b3f 6eb2 4ebf 54e1 6e3d a018 93be
00000040: ad03 4a3e 29e8 223d 7afb c3be e8ce 61be
00000050: cc9d acbe 4c20 c63f 95cb 09be c923 29bf
00000060: 214f 09bf 0c7c 053f 0907 45bd 90f6 25bf
00000070: 1840 de3e 7018 05be e968 2e3e d788 ebbf
00000080: cc90 293f 2b7b 44bf 445f 523f c259 883f
00000090: ab11 afbf 9b99 62bf 7ec6 3fc0 c6af cbbe
000000a0: 75f8 073d b1da 7b3f 45f3 b2bf 1282 c83f
000000b0: 8050 593f c3c2 2abf 23e1 643d 0630 17c0
000000c0: 249d 02c0 15fd 4e3f e255 4cbf affe ccbd
000000d0: 1f90 7e3f fd00 a0bf 0ce0 4fbe 52ed 963f
000000e0: 8dbe cebe d530 dcbe cf09 5d3f 2367 1740
000000f0: 0537 013f 5cc3 9c3e ed5f c53f 8503 c3be
00000100: ca9c aa3e 82e4 e03e bb65 853e 6e51 af3f
00000110: 972a 943e b551 aa3e 32d1 ce3f 26a7 a53f
00000120: 9b22 55bf a680 4ebf 4b71 eebf 0c06 96bf
00000130: 1b94 68bf c71d 34be e7a2 8d3e 2e5d a6bf
00000140: 5e0f b4bf 67e0 253e 3987 973f 1de5 7f3d
00000150: a582 54bf 2dec 193f 0f6b 103f 5dbd 35bd
00000160: e4e1 823e 3182 15bc e279 2ebf 09cc 8a3f
00000170: 0075 21bf ee9d 8f3f c487 01bf 82d0 fd3e
00000180: 4271 443f ea8c b03f 5015 dabe 7329 2140
00000190: d0ed 75bb 3b77 7b3f e6f3 6fbf bc3a 0840
000001a0: 53ac df3e 6071 d0be f623 b0bf 39b4 33bf
000001b0: 823a a43e 8c20 66bf cefc 04c0 beab 4cbe
000001c0: fca2 8abf de7f 30bf 4525 4b3f aef8 a5be
000001d0: f14b 3b3f e6b1 073f eca8 9bbe 36be f9bf
000001e0: 8a3a 413f b37b 533f ee83 673e d989 0ebf
000001f0: 17ce debf dcdb 853e fb6a fabe 34dd 0540
00000200: 8f22 c3bf 3001 753f 35b5 f13f be33 313f
00000210: 7a30 4b3f e91f 1340 e558 223f 6fd1 203f
00000220: 2acd 293f 0266 dabf 6060 14bf 8519 93be
00000230: d23b 45bf 12ab 033f e391 babd 44c6 313e
00000240: 9254 4cbe 2132 afbf 0be5 fa3e 7111 bebd
00000250: 6c1f a13e ecec a73e 3dc8 123f 964f 93bf
00000260: 6f8f 50be 5b30 ac3e c67c 9bbf 327a e03f
00000270: f0b7 933f 882a f4bf 3e2a a8bf 053e d4bd
00000280: 68be b8bf 6f1f d3bf 8c6f 1dbf d2a3 a63d
00000290: 3e06 91bf f9af 153e ae82 8e3f f493 a93d
000002a0: 9b6c 90bd eef9 1cbf cf61 6bbe afef 9d3e
000002b0: f28b 6cbe 69bc d6bf bc23 a8bd f929 6c3f
000002c0: a65f 1a3f 6f65 d53f 37bc 2abf 5709 00bf
000002d0: d489 b33f 920d 64bf 9fb0 c1bf 230e b83e
000002e0: a2ce dcbe b968 ba3f 9838 66bf 927b 8cbf
000002f0: e4f9 ea3e 964b 47bf 5b04 9fbd 1aec 5e3f
00000300: d949 4a3f dc9d f6bf a79e 3cbf 4688 cdbe
00000310: 6d52 76be 78ec dc3e b57c 0cbf 73fe 1240
00000320: 2a27 cdbf b7f6 ba3e e357 fa3e 8eeb a23f
00000330: fa95 b43f f3d0 d23f 0b74 b0bf 3d60 bf3f
00000340: cbe2 2e3d 8e4b 103f b172 7ebf 7fa9 78be
00000350: 3d58 8a3f 9efc c5be 31dd 72bf 12b6 e6bf
00000360: 09e3 38be 13a3 fd3e a3d0 c43e d9dd e03f
00000370: e430 5f3f d61c a33f a059 bbbf 92ff 89bf
00000380: a799 983e 93cf a93e 701c 38bd 21ec 56bf
00000390: 96db f5be 9a58 79bf d4ff 173f 04ac cfbe
000003a0: 03ff 2abf 9c07 893f 6f8f 9d3f 61bc ad3e
000003b0: f614 cb3e bf6c adbf cb1a d23f e458 e73f
000003c0: 500e 763f 204d 27bf cadc 723e 452c cb3d
000003d0: dd67 2d3f 0a12 a9bf e9cc 083f 8537 ff3e
000003e0: 2f30 0d3e 6587 a9bf 3e77 20bc 1ea9 8a3e
000003f0: 1b30 3cbf f189 aebf cf1e f0be 985d edbd

lora_A f4 [5, 100]
0.18770562 0.038986403 0.7758046 0.16582678 -0.0032200802 -0.36288908 2.1151423 -0.70098776
-2.4073012 0.13210297 1.3916081 0.30296525 -0.30219054 -2.0076594 0.31812632 -1.3288525
-1.6671818 -0.81644064 -0.72189736 0.49343565 -1.8934546 -1.8767976 0.8251116 0.9739367
-1.1979108 -0.8485138 2.6772406 1.7459489 1.7602454 -0.40808797 -0.052239355 -0.036324635
-0.52958184 -1.505735 -0.62364835 0.7873713 0.6978894 -0.083404034 -0.48892626 0.4081589
0.70836914 -1.122951 1.8017907 1.6735909 -0.2976092 0.10450254 0.30743027 -2.3978186
1.8264936 -1.2635157 2.532581 -0.9217303 0.5069143 -0.28226748 -1.1544939 -0.3992753
-1.3922086 1.6118047 1.6342162 0.16330177 -2.0212271 0.31575137 0.8267386 -0.1648993
-0.12886906 -0.13704433 0.0004317109 0.4116797 -0.18774311 0.32516226 -0.20734216 -1.901824
-0.4736934 -0.7733567 -0.63266766 -0.42849803 0.6896458 1.2538238 0.15181962 -0.27092066
0.26410386 -0.6128197 1.2048228 -2.084372 0.75950545 1.2529656 0.46856615 1.4377855
0.86242986 0.049789157 1.6438065 1.4010849 -0.65356505 0.40970722 -1.2998464 0.73660326
1.2906483 -0.7053917 -0.13008808 -0.6195779 0.94876 0.71648777 0.4057537 -0.66558594
-0.35772464 1.6161194 2.82412 1.2255824 0.477877 0.5344815 -0.63177854 1.1240513
1.2597663 -0.22411157 -2.2446308 0.21584758 -0.41775587 2.1209989 -0.6643282 0.010945262
-0.2375389 0.8551269 1.0408347 0.3455329 -1.2032186 0.9820324 -0.065178186 1.0536702
-1.1783525 -0.74171424 0.96386373 -0.28871664 -1.720504 1.9278269 0.8457884 2.1940324
-1.2193637 -2.6918843 0.83116454 0.6007942 0.17401484 0.7339885 -0.11308907 -0.101606555
-0.869644 -0.32045624 1.5471954 -1.2908014 -1.6907746 -0.06751124 0.10564041 0.8132661
0.70054346 -1.1201907 -1.1499016 0.007745766 0.23386653 -1.4480656 -0.41611016 0.7255138
-2.288659 0.93410516 0.98862016 0.3359457 -0.89922446 -0.7405889 0.5425239 -1.5000378
-0.5137969 -0.8784205 2.1243374 -0.33105758 -1.1767524 -0.13895011 -1.770805 -1.583733
-1.8408148 1.894534 -1.0193646 -0.75672835 -0.86819607 -0.92775834 -1.0669903 -0.891402
-0.91780376 -1.1675395 -0.60869855 -0.6250676 -0.22206533 1.9534163 -0.52945817 0.2115559
-0.9537727 -0.62186205 -0.9591466 -0.096548654 -1.4838136 -0.16335434 -0.104916684 0.6696603
-0.13410223 -0.3992472 0.25664705 1.4164559 -0.7476638 1.7596506 0.564131 -1.9956645
-0.75315183 -0.096056126 -1.8341824 -0.47263163 -0.61236995 -0.62830037 0.43119064 1.8220217
0.51593244 0.34461823 0.23981571 0.6316434 0.77707684 -0.87224835 1.621253 -0.17656362
-0.4571711 -1.2911512 1.1286544 0.6798789 -1.0377083 -0.8194485 -0.033015866 0.3764923
-1.1726379 1.3206478 0.25232828 1.1675715 -0.9576099 -0.9729941 0.6702965 1.2623987
1.4716393 1.3759693 -1.5877972 -0.8483768 0.083779104 1.03932 -0.13046275 -0.95341754
2.5142772 -1.3595523 -0.9889705 -0.6735828 -0.088924155 -0.15499245 1.7825977 -0.96710336
00000000: e735 403e 35b0 1f3d 219b 463f 7fce 293e
00000010: fb07 53bb 99cc b9be 7e5e 0740 ef73 33bf
00000020: 3911 1ac0 0046 073e 3720 b23f 431e 9b3e
00000030: b8b8 9abe 7e7d 00c0 74e1 a23e d717 aabf
00000040: 3766 d5bf 4102 51bf 44ce 38bf 99a3 fc3e
00000050: b85c f2bf e73a f0bf 843a 533f ea53 793f
00000060: 2455 99bf 3338 59bf e957 2b40 417b df3f
00000070: b94f e13f e8f0 d0be eff8 55bd 24c9 14bd
00000080: ad92 07bf edbb c0bf 6ba7 1fbf 2a91 493f
00000090: e1a8 323f bccf aabd 8b54 fabe 34fa d03e
000000a0: ae57 353f dcbc 8fbf 14a1 e63f 3a38 d63f
000000b0: 3c60 98be 6d05 d63d 8067 9d3e dc75 19c0
000000c0: 8bca e93f e2ba a1bf cf15 2240 84f6 6bbf
000000d0: 23c5 013f 5d85 90be 75c6 93bf d06d ccbe
000000e0: e433 b2bf 9e4f ce3f ff2d d13f 9438 273e
000000f0: c95b 01c0 2aaa a13e 24a5 533f 5ddb 28be
00000100: 40f6 03be 5955 0cbe 4257 e239 aec7 d23e
00000110: bb3f 40be ab7b a63e 8151 54be f86e f3bf
00000120: f187 f2be b4fa 45bf 82f6 21bf 1864 dbbe
00000130: a18c 303f 4c7d a03f 9a76 1b3e 1db6 8abe
00000140: 9f38 873e c0e1 1cbf a237 9a3f 5a66 05c0
00000150: f36e 423f 2d61 a03f e7e7 ef3e 5b09 b83f
00000160: 34c8 5c3f b7ef 4b3d 4068 d23f c056 b33f
00000170: 0a50 27bf 25c5 d13e 5e61 a6bf 0892 3c3f
00000180: f733 a53f 8d94 34bf cf35 05be a89c 1ebf
00000190: efe1 723f be6b 373f f3be cf3e d763 2abf
000001a0: af27 b7be 00dd ce3f 62be 3440 e2df 9c3f
000001b0: 4bac f43e c8d3 083f 3dbc 21bf eae0 8f3f
000001c0: 0640 a13f 817d 65be 08a8 0fc0 2607 5d3e
000001d0: 19e4 d5be 72be 0740 6a11 2abf c253 333c
000001e0: 663d 73be 99e9 5a3f 123a 853f b0e9 b03e
000001f0: 1103 9abf 7a66 7b3f 247c 85bd aade 863f
00000200: 41d4 96bf fce0 3dbf c6bf 763f abd2 93be
00000210: 7a39 dcbf 08c3 f63f 9785 583f 076b 0c40
00000220: 1c14 9cbf d547 2cc0 33c7 543f a6cd 193f
00000230: f230 323e ace6 3b3f 3e9b e7bd 1917 d0bd
00000240: fda0 5ebf d712 a4be 800a c63f fb38 a5bf
00000250: 4d6b d8bf 5543 8abd 005a d83d 3532 503f
00000260: d156 333f 6962 8fbf fa2f 93bf 32d0 fd3b
00000270: b57a 6f3e 375a b9bf 640c d5be 46bb 393f
00000280: 6479 12c0 8421 6f3f 3616 7d3f 1301 ac3e
00000290: 9333 66bf 3c97 3dbf d9e2 0a3f 3d01 c0bf
000002a0: 3288 03bf 2ae0 60bf 25f5 0740 6180 a9be
000002b0: d39f 96bf f048 0ebe bda9 e2bf c3b7 cabf
000002c0: d29f ebbf 1780 f23f 8a7a 82bf f3b8 41bf
000002d0: 1942 5ebf 9281 6dbf 2393 88bf ec32 64bf
000002e0: 30f5 6abf ef71 95bf abd3 1bbf 6e04 20bf
000002f0: 1865 63be 8c09 fa3f 928a 07bf 1ca2 583e
00000300: 732a 74bf 5a32 1fbf a28a 75bf 4dbb c5bd
00000310: 9bed bdbf 5c46 27be 8fde d6bd db6e 2b3f
00000320: 1852 09be 216a ccbe 3e67 833e 6d4e b53f
00000330: e566 3fbf 3b3c e13f e46a 103f ef71 ffbf
00000340: 8fce 40bf 13b9 c4bd 7dc6 eabf c6fc f1be
00000350: 47c4 1cbf 4bd8 20bf 05c5 dc3e 0238 e93f
00000360: 2614 043f cd71 b03e 4092 753e 62b3 213f
00000370: 82ee 463f ab4b 5fbf 3885 cf3f 18cd 34be
00000380: 5512 eabe 7144 a5bf bf77 903f 8b0c 2e3f
00000390: a0d3 84bf 60c7 51bf a53b 07bd 99c3 c03e
000003a0: 0019 96bf fd0a a93f 2c31 813e fc72 953f
000003b0: ec25 75bf 2416 79bf 8d98 2b3f 4896 a13f
000003c0: ad5e bc3f c31f b03f f03c cbbf 392f 59bf
000003d0: 6194 ab3d 7008 853f 0798 05be 2c13 74bf
000003e0: ebe9 2040 cf05 aebf 2c2d 7dbf ec6f 2cbf
000003f0: de1d b6bd 57b6 1ebe 292c e43f 1694 77bf
